…
2025-04-12 02:41:07,085 - tdnn_trainer - INFO - Dataset loaded successfully: (1360, 40)
2025-04-12 02:41:07,085 - tdnn_trainer - INFO - NaN values in dataset: 0
2025-04-12 02:41:07,086 - tdnn_trainer - INFO - Dataset shape after dropping NaN: (1360, 40)
2025-04-12 02:41:07,087 - tdnn_trainer - INFO - Numerical columns: 32
2025-04-12 02:41:07,087 - tdnn_trainer - INFO - Categorical columns: 7
2025-04-12 02:41:07,088 - tdnn_trainer - INFO - Train set: (1088, 39), Test set: (272, 39)
2025-04-12 02:41:07,118 - tdnn_trainer - INFO - Model created with input size: 1825, hidden size: 128
2025-04-12 02:41:07,118 - tdnn_trainer - INFO - Model architecture: TDNN(
  (reshape_layer): Linear(in_features=1825, out_features=128, bias=True)
  (conv_layers): ModuleList(
    (0): Sequential(
      (0): Conv1d(128, 128, kernel_size=(3,), stride=(1,), padding=(1,))
      (1): BatchNorm1d(128, eps=1e-05, momentum=0.1, affine=True, track_running_stats=True)
      (2): SiLU()
      (3): Dropout(p=0.3, inplace=False)
    )
    (1): Sequential(
      (0): Conv1d(128, 128, kernel_size=(5,), stride=(1,), padding=(2,))
      (1): BatchNorm1d(128, eps=1e-05, momentum=0.1, affine=True, track_running_stats=True)
      (2): SiLU()
      (3): Dropout(p=0.3, inplace=False)
    )
    (2): Sequential(
      (0): Conv1d(128, 128, kernel_size=(7,), stride=(1,), padding=(3,))
      (1): BatchNorm1d(128, eps=1e-05, momentum=0.1, affine=True, track_running_stats=True)
      (2): SiLU()
      (3): Dropout(p=0.3, inplace=False)
    )
  )
  (fc1): Sequential(
    (0): Linear(in_features=384, out_features=128, bias=True)
    (1): BatchNorm1d(128, eps=1e-05, momentum=0.1, affine=True, track_running_stats=True)
    (2): SiLU()
    (3): Dropout(p=0.3, inplace=False)
  )
  (fc2): Sequential(
    (0): Linear(in_features=128, out_features=64, bias=True)
    (1): BatchNorm1d(64, eps=1e-05, momentum=0.1, affine=True, track_running_stats=True)
    (2): SiLU()
    (3): Dropout(p=0.24, inplace=False)
  )
  (output_layer): Linear(in_features=64, out_features=1, bias=True)
)
2025-04-12 02:41:07,682 - tdnn_trainer - INFO - Starting training for 150 epochs...
2025-04-12 02:41:07,702 - tdnn_trainer - ERROR - Error in TDNN implementation: Given groups=1, weight of size [128, 128, 3], expected input[32, 1, 128] to have 128 channels, but got 1 channels instead
Traceback (most recent call last):
  File "/Users/ca5/Desktop/qnn_fnl/classical/Time Delay Neural Network (TDNN)/tdnn.py", line 426, in main
…
